supplementary_material/bertopic_model_dir_regular_10000/topic_embeddings.safetensors (safetensors, 780376 bytes, 1 tensors)

topic_embeddings f4 [508, 384]
00000000: 29b8 053c 4f1f e239 014f 0d3b 9b1a 9dbb
00000010: 701c 683c f2bd 45bb 156a 2abd cc25 a2bb
00000020: fe50 80bc fcc7 22bc 91f7 9f3c b330 c93c
00000030: 16f1 19bc eae1 3ebc 4eb0 253c 0ccf a4bc
00000040: b6e6 1a3d 9e6e 37bd e70c 72bc 8841 2239
00000050: ca70 48bc 26fb c8bc c1ab 623c 74ec d0bc
00000060: 5e6a 3d3d 80b2 a3bc c2ce babc 30dc c03a
00000070: 2884 783c a74e 3cbd 7454 0bbd 3a3e 0d3d
00000080: b261 0d3d 683c d8bb fcc8 e53b 2595 0c3d
00000090: fe12 2e3c 4e60 4539 bdd9 573c d417 e3ba
000000a0: 1fb2 b2bb d40c 93bc cf1d 4cbc bcc6 b43c
000000b0: 8ab2 a4bb 608e 86bc 1d95 323c 3426 573a
000000c0: 7f68 dabb b7b3 493c 1b3a 7b3c bc68 d3bc
000000d0: b3af d3bc a5e1 36bc 7578 c23b 4db7 4a3c
000000e0: 34e5 88bc b961 ec3b 0735 373c 4727 30bc
000000f0: ca47 a93c 268a f5bb 4e05 09bd 0b62 4cbb
00000100: ad45 cd3b 18a4 23bc d7b3 9fbc 8b30 ed3c
00000110: eca0 19bd ac75 afbc ab62 683c c39e a7bc
00000120: fa90 c5bc bd12 c3bc abbc 163c daf4 0c3d
00000130: 569b d03c d4f6 b73b b212 3b3c d525 50bd
00000140: 1104 f73c 4ec0 1c3c 77b3 7ebc e7a4 91bc
00000150: cc2f bcbb e601 2f3c 881f de3c bfe0 cebc
00000160: d2e1 c23b 8e3a 9dbb 28f5 9b3c 11bd 003c
00000170: 3cca 25ba 7ab6 25bb 2819 a4bc 419d d23c
00000180: cc13 00bd 00ee 12bd 00b0 ad3c 93a2 7d3d
00000190: 9393 a33a 85bd a73c 6709 833c 46f5 38bd
000001a0: 8a06 fbbc c9c5 bebc 363c a43c b355 d33c
000001b0: 3c74 b73c 1633 b7bc 9e5d 13bc fd75 f43c
000001c0: ff0c 00bc 4509 47bc 21e0 a63b d1c3 963c
000001d0: ba6f 98bc c178 04bc ccef 053d 3306 70bc
000001e0: 52c1 1c3d 7406 be3c 2c0e 03bb 3e6f 24bc
000001f0: d9ec 2fbd 224c 3ebc 5948 e03b 54b9 c3ba
00000200: 47c6 e3bb 33ea 143b c973 6e3b e2b1 f03c
00000210: bacd a3bc bca2 a43b 38ad 063b b33a 04bd
00000220: afed 9fbb d089 4ebc 6cc7 c9bb 9288 3d3d
00000230: 7010 e83c d56a 763c 5a4d b23c 162c 32bd
00000240: 9794 01bd d16c 573d 6625 f13c 5aa0 813a
00000250: 5d75 54bb a807 e0bc cfe9 81bc e1fc 093d
00000260: 1f7c e33c d484 883b 5c45 0dbc 7df3 d13b
00000270: 0718 8f3b ad9f 8dbb e7ce 4d3c b5d3 9b3c
00000280: f3b9 76ba 8696 cb3b d907 8fbc 5d97 543c
00000290: e2bb 843b 9010 19bd f8c0 71bc 8b49 843c
000002a0: ba06 27bd cd9a 033b f739 1e3c 3dad 6d3b
000002b0: fe3f b33a 1738 0bba 809a 6b3c 4391 90bc
000002c0: 2f77 a63c c27b 29bb abf8 033a ffed 553a
000002d0: de87 25bb d213 a7bb 3095 debb 8333 8fbc
000002e0: b79a 05bc 55c3 a5bc cb1d 13bc 8db0 093d
000002f0: e2d2 f23b 9715 473c 7c7f 3bbc ea85 d2bc
00000300: 4537 19bd 4775 6a3d d183 c43c 2676 993c
00000310: eae8 71bb 356a ae3c 2243 44bb 44e0 0b3b
00000320: e10d 6dbc eee0 57bb 0355 5bba a454 643c
00000330: ec5a 6bbb fbae 923c a0f5 223d c119 ed3a
00000340: 61b9 eabb 868a 8c3b d490 f23c a3d6 2e3c
00000350: f770 003d 77db 363c 567b 0e3d 0659 1c3c
00000360: 7d79 a83c 3929 023d ba22 32bd f259 823c
00000370: 8d19 3bbc db3f 083d 884c 0a3c 13bf 780a
00000380: ae33 90bb 01df a83c e909 cabb 1308 bd3c
00000390: c715 27bb e4f1 d3bc 9e54 d7ba 1ae6 c13c
000003a0: bbbc 7e3c 81ba b23c 55db 843b d635 4cbc
000003b0: a57f aebc b2a9 d4ba 7709 26bd d5e0 88bc
000003c0: 05c2 fd3b 9144 553b 227f 363c 26d1 fdbb
000003d0: 7ef4 1f3d 5984 a33c 27db aabc 049a 083d
000003e0: eeb3 b1bc dc37 aa3c 8847 b1bb 843f c7bc
000003f0: 67db cebb fe47 82ba 9c0b 5cbc 908c 18bc
0.008161583 0.00043129406 0.0021561983 -0.0047944314 0.014166936 -0.003017303 -0.041605074 -0.0049483534
-0.01566362 -0.009935375 0.019527229 0.024559354 -0.009395858 -0.011650542 0.010112835 -0.020118259
0.03781768 -0.044783227 -0.014773584 0.00015473936 -0.012233922 -0.02453382 0.013834895 -0.025503375
0.046244018 -0.019982576 -0.022803668 0.0014714058 0.015168227 -0.045973446 -0.034016088 0.034483172
0.034516998 -0.006598998 0.0070124846 0.034321923 0.010624645 0.0001882326 0.013174471 -0.0017325827
-0.0054533626 -0.017950453 -0.012458279 0.02206742 -0.0050261663 -0.016425312 0.010899809 0.0008207292
-0.006665289 0.012310914 0.015333678 -0.025806777 -0.025840616 -0.011162196 0.0059347698 0.012372804
-0.016710855 0.007213798 0.011182076 -0.010751552 0.020664115 -0.007493275 -0.033452325 -0.0031186368
0.0062644095 -0.0099878535 -0.019494934 0.028953811 -0.037506983 -0.021418415 0.0141836805 -0.020461446
-0.024116982 -0.023812646 0.009200255 0.034413196 0.025464695 0.005614141 0.0114180315 -0.05081733
0.030153306 0.009567333 -0.015545717 -0.017778827 -0.0057430025 0.010681605 0.027114645 -0.025253652
0.00594733 -0.00479824 0.019037798 0.007857577 -0.0006324386 -0.0025285766 -0.020031527 0.02570975
-0.03126888 -0.035871506 0.021202087 0.06192262 0.0012479894 0.020476112 0.015995694 -0.045155786
-0.030642767 -0.02328767 0.020048242 0.0257977 0.022394292 -0.022363227 -0.008994488 0.029841417
-0.0078155985 -0.012148206 0.005092636 0.01840392 -0.018607963 -0.008085431 0.03269939 -0.0146499155
0.038270302 0.023196436 -0.001999746 -0.010036288 -0.042950485 -0.011614831 0.006844562 -0.0014932551
-0.0069511267 0.0022722601 0.0036384931 0.029381696 -0.019995559 0.0050242823 0.0020550024 -0.032282542
-0.004880629 -0.012606099 -0.006157806 0.04627282 0.02832815 0.015040119 0.0217654 -0.043499075
-0.031635847 0.05259401 0.029436778 0.0009889707 -0.0032418587 -0.0273474 -0.015858559 0.03368843
0.027769146 0.004166225 -0.008622494 0.0064072 0.004366878 -0.0043220134 0.012561536 0.019021848
-0.0009411864 0.006213012 -0.017459797 0.012975541 0.0040507177 -0.03736931 -0.01475548 0.01614835
-0.0407779 0.0020081282 0.009657375 0.0036266588 0.0013675687 -0.0005310787 0.014380097 -0.017647391
0.020320503 -0.002586112 0.0005034308 0.00081607694 -0.0025257985 -0.0050987983 -0.006792687 -0.017480617
-0.008154563 -0.020234743 -0.008979271 0.033615638 0.007410393 0.0121511435 -0.011443969 -0.02569862
-0.037406225 0.05724075 0.023988636 0.018733095 -0.003691251 0.021290878 -0.002994724 0.002134339
-0.014468641 -0.0032940465 -0.0008366855 0.0139361955 -0.0035912348 0.017905703 0.039785028 0.001808934
-0.007163212 0.004288974 0.029610075 0.010671291 0.03135773 0.011160723 0.03478559 0.009542709
0.020565743 0.031777594 -0.04349015 0.01591203 -0.011419666 0.033264022 0.008441098 1.1976703e-32
-0.004400692 0.020614149 -0.006165732 0.02307514 -0.0025495158 -0.025872178 -0.0016428416 0.023669291
0.015547927 0.021817448 0.0040544667 -0.012464007 -0.0213011 -0.001622489 -0.04053637 -0.01670877
0.007744076 0.003254209 0.011138709 -0.0077458797 0.039051525 0.01996057 -0.020856453 0.033350006
-0.021692242 0.020778589 -0.0054101385 -0.024322279 -0.006312776 -0.0009939668 -0.013430502 -0.009310856
